…
n to randomly initialize all weights to mean=0, stdev=0.2\n","def weights_init(m):\n","    classname = m.__class__.__name__\n","    if classname.find('Conv') != -1:\n","        nn.init.normal_(m.weight.data, 0.0, 0.02)\n","    elif classname.find('BatchNorm') != -1:\n","        nn.init.normal_(m.weight.data, 1.0, 0.02)\n","        nn.init.constant_(m.bias.data, 0)\n","netG.apply(weights_init)\n","netD.apply(weights_init)\n","\n","# Print the models\n","print(netG)\n","print(netD)"],"execution_count":56,"outputs":[{"output_type":"stream","text":["Generator(\n","  (emb_z): Sequential(\n","    (0): Linear(in_features=100, out_features=256, bias=False)\n","    (1): BatchNorm1d(256, eps=1e-05, momentum=0.1, affine=True, track_running_stats=True)\n","    (2): ReLU(inplace=True)\n","  )\n","  (emb_y): Sequential(\n","    (0): Linear(in_features=10, out_features=256, bias=False)\n","    (1): BatchNorm1d(256, eps=1e-05, momentum=0.1, affine=True, track_running_stats=True)\n","    (2): ReLU(inplace=True)\n","  )\n","  (emb_zy): Sequential(\n","    (0): Linear(in_features=512, out_features=512, bias=True)\n","    (1): BatchNorm1d(512, eps=1e-05, momentum=0.1, affine=True, track_running_stats=True)\n","    (2): Linear(in_features=512, out_features=1024, bias=True)\n","    (3): BatchNorm1d(1024, eps=1e-05, momentum=0.1, affine=True, track_running_stats=True)\n","    (4): Linear(in_features=1024, out_features=1024, bias=True)\n","    (5): Tanh()\n","  )\n",")\n","Discriminator(\n","  (emb_x): Sequential(\n","    (0): Linear(in_features=1024, out_features=1024, bias=True)\n","    (1): LeakyReLU(negative_slope=0.2, inplace=True)\n","  )\n","  (emb_y): Sequential(\n","    (0): Linear(in_features=10, out_features=1024, bias=True)\n","    (1): LeakyReLU(negative_slope=0.2, inplace=True)\n","  )\n","  (emb_xy): Sequential(\n","    (0): Linear(in_features=2048, out_features=512, bias=True)\n","    (1): BatchNorm1d(512, eps=1e-05, momentum=0.1, affine=True, track_running_stats=True)\n","    (2): LeakyReLU(negative_slope=0.2, inplace=True)\n","    (3): Linear(in_features=512, out_features=256, bias=True)\n","    (4): BatchNorm1d(256, eps=1e-05, momentum=0.1, affine=True, track_running_stats=True)\n","    (5): LeakyReLU(negative_slope=0.2, inplace=True)\n","    (6): Linear(in_features=256, out_features=1, bias=True)\n","    (7): Sigmoid()\n","  )\n",")\n"],"name":"stdout"}]},{"cell_type":"code","metadata":{"id":"kTHd7XkfT5QY","colab":{"base_uri":"https://localhost:8080/"},"executionInfo":{"status":"ok","timestamp":1610557098190,"user_tz":-60,"elapsed":1153,"user":{"displayName":"LITICIA TOUZARI","photoUrl":"https://lh6.googleusercontent.com/-D5Wqlu9mdI4/AAAAAAAAAAI/
…
